…
model&lt;span class=&quot;token punctuation&quot;&gt;.&lt;/span&gt;summary&lt;span class=&quot;token punctuation&quot;&gt;(&lt;/span&gt;&lt;span class=&quot;token punctuation&quot;&gt;)&lt;/span&gt;&lt;/code&gt;&lt;/pre&gt;&lt;/div&gt;
&lt;div class=&quot;gatsby-highlight&quot; data-language=&quot;text&quot;&gt;&lt;pre class=&quot;language-text&quot;&gt;&lt;code class=&quot;language-text&quot;&gt;Model: &amp;quot;sequential&amp;quot;
_________________________________________________________________
Layer (type)                 Output Shape              Param #   
=================================================================
conv2d (Conv2D)              (None, 148, 148, 32)      896       
_________________________________________________________________
max_pooling2d (MaxPooling2D) (None, 74, 74, 32)        0         
_________________________________________________________________
max_pooling2d_1 (MaxPooling2 (None, 37, 37, 32)        0         
_________________________________________________________________
conv2d_2 (Conv2D)            (None, 35, 35, 64)        18496     
_________________________________________________________________
max_pooling2d_2 (MaxPooling2 (None, 17, 17, 64)        0         
_________________________________________________________________
conv2d_3 (Conv2D)            (None, 15, 15, 64)        36928     
_________________________________________________________________
max_pooling2d_3 (MaxPooling2 (None, 7, 7, 64)          0         
_________________________________________________________________
flatten (Flatten)            (None, 3136)              0         
_________________________________________________________________
dense (Dense)                (None, 128)               401536    
_________________________________________________________________
dense_1 (Dense)              (None, 3)                 387       
=================================================================
Total params: 458,243
Trainable params: 458,243
Non-trainable params: 0
_________________________________________________________________&lt;/code&gt;&lt;/pre&gt;&lt;/div&gt;
&lt;div class=&quot;gatsby-highlight&quot; data-language=&quot;python&quot;&gt;&lt;pre class=&quot;language-python&quot;&gt;&lt;code class=&quot;language-python&quot;&gt;&lt;span class=&quot;token comment&quot;&gt;# Make definition for check the result&lt;/span&gt;
…
