…
on\"><span class=\"token comment\"># See summary of model</span>\nmodel<span class=\"token punctuation\">.</span>summary<span class=\"token punctuation\">(</span><span class=\"token punctuation\">)</span></code></pre></div>\n<div class=\"gatsby-highlight\" data-language=\"text\"><pre class=\"language-text\"><code class=\"language-text\">Model: &quot;sequential&quot;\n_________________________________________________________________\nLayer (type)                 Output Shape              Param #   \n=================================================================\nconv2d (Conv2D)              (None, 148, 148, 32)      896       \n_________________________________________________________________\nmax_pooling2d (MaxPooling2D) (None, 74, 74, 32)        0         \n_________________________________________________________________\nmax_pooling2d_1 (MaxPooling2 (None, 37, 37, 32)        0         \n_________________________________________________________________\nconv2d_2 (Conv2D)            (None, 35, 35, 64)        18496     \n_________________________________________________________________\nmax_pooling2d_2 (MaxPooling2 (None, 17, 17, 64)        0         \n_________________________________________________________________\nconv2d_3 (Conv2D)            (None, 15, 15, 64)        36928     \n_________________________________________________________________\nmax_pooling2d_3 (MaxPooling2 (None, 7, 7, 64)          0         \n_________________________________________________________________\nflatten (Flatten)            (None, 3136)              0         \n_________________________________________________________________\ndense (Dense)                (None, 128)               401536    \n_________________________________________________________________\ndense_1 (Dense)              (None, 3)                 387       \n=================================================================\nTotal params: 458,243\nTrainable params: 458,243\nNon-trainable params: 0\n_________________________________________________________________</code></pre></div>\n<div class=\"gatsby-highlight\" data-language=\"python\"><pre class=\"language-python\"><code class=\"language-python\"><span class=\"token comment\"># Make defini
…
